model/model.pt (torch, 71900 bytes, 56 tensors)

weight f4 [8, 3, 3, 3]
0.113587014 0.06704154 -0.014483318 -0.17971385 0.14636607 -0.072454765 0.07961551 -0.069611594
-0.17090954 -0.010447072 0.08932239 0.12023632 0.081639126 -0.13530244 0.18191873 0.013167931
0.14253971 0.15800871 0.08254267 -0.08947552 0.16500585 -0.014505879 -0.06468225 0.15829559
-0.15631841 0.16476771 0.019861259 -0.22891538 0.025504017 0.1026621 -0.06472656 -0.121036924
0.0069667846 -0.19572656 -0.11778021 -0.10362776 0.08545068 -0.03485608 -0.024638496 0.09065761
0.040285263 0.08413578 -0.022141151 -0.19664244 -0.26622882 -0.06271993 0.091315135 0.05295657
-0.06323648 -0.08444182 0.14167613 0.053010046 0.050538607 -0.21468097 0.121452756 0.02281455
0.19261995 -0.12003862 0.20521502 0.21358441 -0.05138737 -0.05722841 0.0666259 0.057461966
0.13939504 0.13797934 0.19032583 0.072921924 0.2394045 0.14338057 -0.020999968 0.111401066
-0.04348059 -0.03814074 -0.09779981 -0.12738344 -0.01949726 0.0043119774 -0.165847 -0.140551
0.051004913 -0.14091258 0.054500412 0.1532859 0.035881877 -0.18758236 -0.06263934 0.14708684
-0.018331807 0.0971633 -0.16230592 0.016889557 -0.16553526 -0.11958583 -0.035586312 -0.09397649
0.06578571 -0.16706455 -0.07143425 -0.08884487 0.15808839 -0.039156605 -0.016699908 -0.13204612
-0.034694597 -0.15839468 0.1283415 0.152543 -0.19706453 -0.044085532 -0.08080019 0.117754124
-0.11944906 -0.10645545 0.10963033 -0.016450893 -0.18105002 -0.20572515 0.04784612 -0.10380401
-0.08092823 -0.08487636 0.0985116 -0.19170104 0.10643936 -0.029075893 -0.1134235 -0.18431132
0.14153992 -0.086884715 -0.20246862 0.18364301 0.114781104 0.042558797 -0.007698221 -0.120819665
0.06307648 0.19138063 -0.027707305 -0.16493343 0.075396225 -0.0022191298 -0.069533154 -0.18241103
-0.003915169 0.036714196 -0.0059708213 -0.16794363 -0.17721897 -0.08755398 0.12447522 -0.113618106
-0.1290063 0.099413924 0.11725953 -0.050387874 -0.12152471 0.040051565 0.10135022 -0.081590675
0.11708247 0.107698806 -0.053088676 -0.075778015 0.21462655 0.2821381 -0.046685047 0.17194277
0.31191704 0.15059389 0.26909357 0.08225965 0.012983072 -0.030562172 -0.021942466 0.12263954
0.282425 0.11195798 0.0003893912 0.026839698 -0.06993594 0.10673775 -0.10434634 0.038736347
-0.010848772 0.11896367 0.06655143 0.004519126 0.017768908 0.14366752 0.24116775 0.2614089
0.09860048 0.41316792 0.22470762 0.101844594 0.42162707 0.56134325 0.30064547 0.54540664
0.54861444 0.16730674 0.22145854 0.5350255 0.13295607 0.19199501 0.29157105 0.3991248
0.4938682 0.39819488 0.48474425 0.27703324 0.41844904 0.12751965 0.43744248 0.5271206
00000000: 4fa0 e83d 134d 893d 704b 6dbc e806 38be
00000010: fde0 153e 2a63 94bd 750d a33d 8690 8ebd
00000020: e902 2fbe 322a 2bbc a8ee b63d 763e f63d
00000030: 6a32 a73d b98c 0abe e748 3a3e 4ebe 573c
00000040: eef5 113e 09cd 213e 220c a93d f13e b7bd
00000050: 4bf7 283e 11aa 6dbc 2178 84bd 3d18 223e
00000060: ef11 20be deb8 283e 14b4 a23c cb68 6abe
00000070: cded d03c 8240 d23d 5c8f 84bd 35e2 f7bd
00000080: a049 e43b 8b6c 48be c036 f1bd cb3a d4bd
00000090: c400 af3d 40c5 0ebd acd6 c9bc b2aa b93d
000000a0: 2902 253d 614f ac3d 5c61 b5bc a35c 49be
000000b0: 254f 88be 4f73 80bd 6e03 bb3d fde8 583d
000000c0: 2182 81bd d5ef acbd 8c13 113e 1021 593d
000000d0: 9201 4f3d 54d5 5bbe 39bc f83d 94e5 ba3c
000000e0: 2a3e 453e cfd6 f5bd e323 523e dfb5 5a3e
000000f0: 907b 52bd 5668 6abd 2973 883d 3d5d 6b3d
00000100: 93bd 0e3e 754a 0d3e c6e4 423e 1758 953d
00000110: 7426 753e 5bd2 123e 2008 acbc 3e26 e43d
00000120: b418 32bd 7739 1cbd 444b c8bd ce70 02be
00000130: b8b8 9fbc 7d4b 8d3b ccd3 29be 9aec 0fbe
00000140: 87ea 503d 634b 10be d33b 5f3d fbf6 1c3e
00000150: e0f8 123d 9715 40be 0e49 80bd ef9d 163e
00000160: 962c 96bc 8dfd c63d 8633 26be f85b 8a3c
00000170: 1382 29be 6ae9 f4bd f4c2 11bd bf76 c0bd
00000180: a9ba 863d f812 2bbe 1f4c 92bd 4df4 b5bd
00000190: ece1 213e ad62 20bd 3fce 88bc 1937 07be
000001a0: ec1b 0ebd 3732 22be f46b 033e 3b34 1c3e
000001b0: 49cb 49be 0893 34bd 927a a5bd 1329 f13d
000001c0: b5a1 f4bd 5105 dabd de85 e03d 06c4 86bc
000001d0: 2d65 39be 9da9 52be 4bfa 433d 3297 d4bd
000001e0: b3bd a5bd a8d3 adbd 73c0 c93d 474d 44be
000001f0: e1fc d93d 9130 eebc 944a e8bd 1bbc 3cbe
00000200: d7ef 103e 9df0 b1bd ef53 4fbe ea0c 3c3e
00000210: 5b12 eb3d 2252 2e3d 5c41 fcbb 4d70 f7bd
00000220: 3e2e 813d 49f9 433e 6efa e2bc 4fe4 28be
00000230: 5669 9a3d d26e 11bb 6667 8ebd f5c9 3abe
00000240: d14a 80bb a061 163d e1a6 c3bb 6af9 2bbe
00000250: e478 35be 804f b3bd ddec fe3d 9cb0 e8bd
00000260: 3a1a 04be 8799 cb3d c425 f03d 8463 4ebd
00000270: f2e1 f8bd 1c0d 243d b490 cf3d 0319 a7bd
00000280: efc8 ef3d 3191 dc3d 8373 59bd 8131 9bbd
00000290: 10c7 5b3e 6874 903e d238 3fbd c411 303e
000002a0: 97b3 9f3e 4935 1a3e a2c6 893e bf77 a83d
000002b0: f3b6 543c 855d fabc b0c0 b3bc 702a fb3d
000002c0: 029a 903e 3a4a e53d 3427 cc39 edde db3c
000002d0: 933a 8fbd 5299 da3d 89b3 d5bd 01aa 1e3d
000002e0: 0cbf 31bc 3aa3 f33d 1e4c 883d 2d15 943b
000002f0: 1a90 913c 941d 133e aef4 763e 63d7 853e
00000300: 0cef c93d bf8a d33e c119 663e e693 d03d
00000310: 81df d73e 31b4 0f3f 34ee 993e c59f 0b3f
00000320: ff71 0c3f 7552 2b3e 07c6 623e 6ef7 083f
00000330: a325 083e 579a 443e cd48 953e 165a cc3e
00000340: 4bdc fc3e 33e0 cb3e 6630 f83e 4dd7 8d3e
00000350: f43e d63e 8394 023e 76f8 df3e 60f1 063f

bias f4 [8]
0.06489516 -0.08101156 -0.022450129 0.009077331 0.008920088 0.1141435 -0.2556145 0.17494012
00000000: c1e7 843d 64e9 a5bd 55e9 b7bc 16b9 143c
00000010: 9025 123c 11c4 e93d e7df 82be 8123 333e

weight f4 [8]
0.9576081 0.98391294 0.98325413 0.97477865 1.0038499 1.000869 1.105758 1.0175326
00000000: ce25 753f b8e1 7b3f 8bb6 7b3f 188b 793f
00000010: 277e 803f 7a1c 803f 7a89 8d3f 823e 823f

bias f4 [8]
0.023359912 0.039125625 -0.03738928 -0.011897715 -0.0077645965 -0.014299232 -0.0072202836 0.048682082
00000000: 495d bf3c 3142 203d 8025 19bd a2ee 42bc
00000010: 286e febb 5347 6abc 2198 ecbb dd66 473d

running_mean f4 [8]
0.53330874 0.23444897 0.11057076 0.1726572 0.27976555 0.20085298 0.6506567 5.102801
00000000: ec86 083f 6413 703e ec72 e23d 0dcd 303e
00000010: 6e3d 8f3e 67ac 4d3e 7091 263f 254a a340

running_var f4 [8]
0.19503675 0.20131603 0.04508432 0.107355624 0.26463288 0.06775637 0.4869367 19.418524
00000000: b7b7 473e ca25 4e3e 56aa 383d 44dd db3d
00000010: f67d 873e dac3 8a3d c44f f93e 2359 9b41

weight f4 [20, 8, 3, 3]
0.0355175 0.08751692 0.06953195 0.047915403 -0.057396173 -0.04368538 0.08311521 -0.03643596
0.10709575 -0.022487774 0.1189213 -0.057114623 0.1650516 0.16464762 -0.007945105 -0.00496165
0.15805236 0.1547481 -0.0062133763 -0.23955432 -0.11706349 -0.1512781 -0.23911789 -0.18819523
0.012772239 -0.10077113 -0.3170143 -0.1691005 -0.15742263 -0.22091919 -0.17772909 -0.053208362
-0.2106334 -0.10387326 -0.16461068 -0.120684914 -0.0047081336 -0.13688132 -0.162352 -0.21503937
-0.15843827 -0.30857545 -0.045531712 -0.19838353 -0.24572796 -0.22289214 -0.2216141 -0.22359328
-0.046109013 -0.08182752 -0.09433355 0.0009994225 -0.095636226 -0.102940135 -0.19831 -0.30475962
-0.28680518 -0.1316893 -0.2278038 -0.21427633 -0.06873023 -0.29165632 -0.20975558 -0.036200035
0.073913746 -0.1254832 0.16665035 -0.079601236 0.020684827 0.18132758 0.034981497 -0.0740338
-0.059877302 0.0013722652 -0.18690588 -0.15556756 -0.0016746263 -0.018481964 -0.07403603 -0.16779226
-0.06023345 -0.010852698 -0.105142295 -0.12731594 0.022363275 -0.030121319 -0.0653937 -0.0358104
-0.022163467 0.05100813 0.23032555 0.23432256 0.16272135 0.22687095 0.17505093 0.14657767
0.20660658 0.12901078 0.072974265 0.2526125 0.18705377 0.12886477 0.17526765 0.14777319
0.18452702 0.085216016 0.17434402 0.16717514 0.055292316 0.1989351 0.27367517 0.18981157
0.06850411 0.15224919 0.06286739 0.26715052 0.17085932 0.046438865 0.073456965 0.21601237
0.26559424 0.15266512 0.25590432 0.243377 0.18314335 0.099449545 0.16884133 0.26060966
0.22691031 0.1048717 0.26161614 0.29943708 0.25357184 0.17523383 0.22522719 0.19082959
0.1664321 0.116425894 0.19812553 0.22196695 0.14011851 0.011731227 0.08191761 0.03216976
-0.10827344 -0.041469835 0.032362524 0.10771185 0.0015700972 0.108385675 0.0664541 -0.013624137
-0.050928004 0.10766237 -0.048195247 0.027042108 0.00031022087 -0.06479719 -0.055177975 0.13274004
0.0085169645 -0.10611193 0.03795097 -0.029311363 -0.10505653 -0.087005846 -0.1228241 -0.15213667
0.041567706 -0.10747772 -0.023695834 -0.04370407 -0.00247286 -0.022290107 0.074067906 0.031955454
-0.045768715 -0.039967537 -0.107485324 -0.11673248 -0.04943106 0.08163304 0.0016476498 0.07937751
-0.02277456 -0.086956404 -0.032912113 0.054741275 -0.09787388 -0.13625783 -0.03333783 0.06913961
-0.061155517 -0.114203125 0.044351406 -0.120497204 0.010587405 -0.01026074 0.022714451 0.07738489
-0.0633558 -0.13180499 0.085209906 -0.07309317 -0.11264157 0.050330568 0.074305825 0.009145364
-0.04921625 -0.07571666 0.012837141 -0.015726278 0.015956223 -0.10158651 0.01909735 0.045480534
-0.04133154 -0.0565809 0.1054036 0.020055924 0.09347146 0.041721653 0.05550374 -0.030973803
-0.07272759 -0.12043315 -0.02799849 -0.051634435 0.059788194 -0.08149011 0.047852356 0.015503515
-0.04427481 0.07476654 -0.05953372 0.06685713 0.051980276 0.12974057 -0.007620578 -0.08914316
0.0243831 -0.0070154383 -0.032474197 0.08132534 -0.02718821 -0.027692012 0.0082757175 -0.046967253
0.025734568 0.025939198 0.082369804 -0.0018472116 0.07413201 0.005838453 -0.074881785 0.06426459
00000000: cc7a 113d 123c b33d c466 8e3d f142 443d
00000010: 4018 6bbd 71ef 32bd 4f38 aa3d e03d 15bd
00000020: 0455 db3d 4838 b8bc 038d f33d 06f1 69bd
00000030: 4903 293e 6399 283e 302c 02bc 5695 a2bb
00000040: 7ad8 213e 4976 1e3e 9499 cbbb ba4d 75be
00000050: fcbe efbd a5e8 1abe 52db 74be 40b6 40be
00000060: a742 513c 1861 cebd b34f a2be ae28 2dbe
00000070: 6633 21be a438 62be 9dfe 35be 03f1 59bd
00000080: 48b0 57be 81bb d4bd b48f 28be a729 f7bd
00000090: b046 9abb 9e2a 0cbe 9a3f 26be 4833 5cbe
000000a0: a43d 22be 9afd 9dbe 767f 3abd 0d25 4bbe
000000b0: 1ca0 7bbe d63d 64be ceee 62be a3f5 64be
000000c0: cedc 3cbd 3095 a7bd f331 c1bd 0eff 823a
000000d0: eddc c3bd 47d2 d2bd c711 4bbe 7409 9cbe
000000e0: 21d8 92be 8fd9 06be 6645 69be 416b 5bbe
000000f0: 6fc2 8cbd fa53 95be 2bca 56be 7d46 14bd
00000100: 1760 973d ab7e 00be 64a6 2a3e f905 a3bd
00000110: 3a73 a93c f0ad 393e c248 0f3d 089f 97bd
00000120: e741 75bd 94dd b33a 4164 3fbe 1a4d 1fbe
00000130: 227f dbba 7d67 97bc 34a0 97bd bcd1 2bbe
00000140: 5ab7 76bd 84cf 31bc d854 d7bd 1c5f 02be
00000150: 3033 b73c fcc0 f6bc 22ed 85bd edad 12bd
00000160: 2990 b5bc e7ed 503d 76da 6b3e 41f2 6f3e
00000170: 6da0 263e dc50 683e 8d40 333e 7518 163e
00000180: ad90 533e 671b 043e 8873 953d 6d56 813e
00000190: 068b 3f3e 20f5 033e 5d79 333e db51 173e
000001a0: a7f4 3c3e bc85 ae3d 3d87 323e f62f 2b3e
000001b0: 327a 623d a5b5 4b3e 271f 8c3e f75d 423e
000001c0: e24b 8c3d 36e7 1b3e 9ec0 803d f4c7 883e
000001d0: bff5 2e3e ae36 3e3d 9b70 963d 5932 5d3e
000001e0: f8fb 873e 3f54 1c3e e405 833e d237 793e
000001f0: ee89 3b3e 34ac cb3d bee4 2c3e a16e 853e
00000200: 2d5b 683e f9c6 d63d 8df2 853e d14f 993e
00000210: 2bd4 813e 7f70 333e f5a1 663e d568 433e
00000220: 2d6d 2a3e b370 ee3d 6be1 4a3e 4e4b 633e
00000230: 3a7b 0f3e 5534 403c 6bc4 a73d 70c4 033d
00000240: 77be ddbd 46dc 29bd 918e 043d 0898 dc3d
00000250: b8cb cd3a 4ff9 dd3d 1619 883d c637 5fbc
00000260: e299 50bd 177e dc3d 6168 45bd 6987 dd3c
00000270: 24a5 a239 64b4 84bd 4d02 62bd 01ed 073e
00000280: bd8a 0b3c 3651 d9bd 7a72 1b3d 621e f0bc
00000290: e127 d7bd 1f30 b2bd 348b fbbd b7c9 1bbe
000002a0: e642 2a3d 471d dcbd c41d c2bc 0a03 33bd
000002b0: b50f 22bb be99 b6bc eab0 973d b9e3 023d
000002c0: fa77 3bbd 00b5 23bd 4421 dcbd 7011 efbd
000002d0: 3978 4abd 392f a73d f4f5 d73a ad90 a23d
000002e0: b791 babc 3316 b2bd dace 06bd 6338 603d
000002f0: 1a72 c8bd 2c87 0bbe 408d 08bd 1199 8d3d
00000300: 357e 7abd 54e3 e9bd d2a9 353d 3dc7 f6bd
00000310: cc76 2d3c aa1c 28bc a813 ba3c f87b 9e3d
00000320: b0c0 81bd e3f7 06be 8882 ae3d dfb1 95bd
00000330: a0b0 e6bd 6d27 4e3d a72d 983d 70d6 153c
00000340: fb96 49bd 5611 9bbd df52 523c 65d4 80bc
00000350: a0b6 823c 970c d0bd 0c72 9c3c cc49 3a3d
00000360: 434b 29bd 60c1 67bd d8dd d73d 524c a43c
00000370: f76d bf3d 53e4 2a3d e457 633d c6bc fdbc
00000380: 34f2 94bd a8a5 f6bd 175d e5bc a17e 53bd
00000390: 77e4 743d 49e4 a6bd d500 443d 7402 7e3c
000003a0: 8159 35bd 331f 993d a1d9 73bd 64ec 883d
000003b0: 45e9 543d b6da 043e 0bb6 f9bb b090 b6bd
000003c0: 11bf c73c c3e1 e5bb aa03 05bd e68d a63d
000003d0: cfb9 debc 5cda e2bc e096 073c bc60 40bd
000003e0: 4dd1 d23c 717e d43c 80b1 a83d 231e f2ba
000003f0: 86d2 973d 7e50 bf3b 9f5b 99bd 279d 833d

bias f4 [20]
-0.05684486 0.084896445 -0.08587105 -0.029095745 0.03698902 -0.082287535 -0.023495942 0.10184951
-0.047698453 0.02196022 -0.023971474 0.054849885 -0.07846806 0.19314244 -0.09072076 0.019959642
-0.10204348 0.022841288 -0.06646133 -0.044242963
00000000: 28d6 68bd 30de ad3d 29dd afbd 335a eebc
00000010: cc81 173d 5e86 a8bd 907a c0bc 7a96 d03d
00000020: 745f 43bd ebe5 b33c d35f c4bc 46aa 603d
00000030: ddb3 a0bd 22c7 453e cecb b9bd 6782 a33c
00000040: 2cfc d0bd a71d bb3c e11c 88bd 1c38 35bd

weight f4 [20]
0.9722861 1.0336233 1.0176184 0.9353633 1.0159619 0.9940657 0.9747666 1.0093313
1.0117124 0.9491497 1.0035865 0.9401226 0.9546419 1.0384399 0.99646944 1.0466373
1.0493433 0.99369293 1.0304567 1.0380509
00000000: bee7 783f c54d 843f 5241 823f f873 6f3f
00000010: 0a0b 823f 177b 7e3f 4e8a 793f c531 813f
00000020: cb7f 813f 7afb 723f 8675 803f e0ab 703f
00000030: 6963 743f 99eb 843f 9f18 7f3f 36f8 853f
00000040: e250 863f a962 7e3f 01e6 833f dade 843f

bias f4 [20]
-0.012425228 0.0031684237 0.009429259 0.009980844 -0.013020253 0.022399224 -0.00067713053 0.002011911
-0.021058684 -0.00027472342 0.008252681 -0.028424535 0.015037569 -0.0056693563 0.013360852 0.02435575
0.014124203 0.011517642 0.0048126355 -0.00040941781
00000000: 2f93 4bbc 54a5 4f3b 2e7d 1a3c b286 233c
00000010: e652 55bc 947e b73c 7681 31ba 44da 033b
00000020: 4383 acbc c108 90b9 4136 073c 92da e8bc
00000030: 2360 763c 02c6 b9bb 7ae7 5a3c b685 c73c
00000040: 3369 673c 7eb4 3c3c 50b3 9d3b 21a7 d6b9

running_mean f4 [20]
0.9552453 1.5821929 0.23834667 0.41877714 0.3932256 0.23341407 0.84541327 0.49509034
0.31072932 0.57169896 0.48076665 0.5488783 0.17583953 0.8078991 0.15995777 0.7206728
0.3662728 0.19904271 0.5664907 0.2801539
00000000: f58a 743f 4c85 ca3f 2611 743e f569 d63e
00000010: de54 c93e 1904 6f3e 016d 583f 7b7c fd3e
00000020: ea17 9f3e dd5a 123f 0c27 f63e 4a83 0c3f
00000030: 470f 343e 7ad2 4e3f f8cb 233e 037e 383f
00000040: 1c88 bb3e dad1 4b3e 8905 113f 5570 8f3e

running_var f4 [20]
1.3525822 8.92681 0.06924652 0.24094248 0.24749343 0.33769274 0.9992456 0.37048316
0.14613332 0.36212572 0.547397 0.39601704 0.17243865 2.8872213 0.15489559 2.2249198
0.43085718 0.041553915 0.6034441 0.14360246
00000000: 6a21 ad3f 37d4 0e41 1fd1 8d3d a0b9 763e
00000010: eb6e 7d3e 10e6 ac3e 8fce 7f3f f8af bd3e
00000020: f9a3 153e 8b68 b93e 3622 0c3f bfc2 ca3e
00000030: c293 303e 3cc8 3840 f39c 1e3e 1665 0e40
00000040: 5099 dc3e 7034 2a3d 507b 1a3f 860c 133e

weight f4 [10, 20, 1, 1]
-0.2314691 0.07497266 0.106054 -0.023119353 0.13516629 -0.07731089 0.13196993 -0.121184684
-0.035638575 -0.2118181 0.13029163 -0.19093189 0.18981282 0.022175387 -0.096728526 0.19283012
-0.20903619 0.009141315 0.14102206 -0.24797414 -0.1319458 -0.044277348 -0.00902446 -0.14233561
-0.20892675 0.22503549 -0.009206388 0.018681401 0.055333223 0.15174828 -0.21083316 -0.124778174
0.09750328 -0.018800061 0.18856512 -0.16645344 0.17045394 0.042689223 -0.24346809 0.233369
-0.2516335 -0.09173075 -0.03466006 -0.11294735 -0.18124697 -0.052193098 0.07990851 -0.17018905
0.104219824 -0.07843143 -0.1274757 0.038371876 -0.19831026 0.095898144 -0.078319326 0.08631668
-0.2427172 0.04256068 -0.21090154 -0.056534655 0.095054395 -0.20753266 -0.14054398 -0.27898148
0.194805 -0.40602106 0.039785203 -0.08471534 0.033283256 0.1408163 -0.045187604 0.056986347
-0.2530522 0.32126758 -0.27831575 -0.436244 -0.44825855 -0.09692542 -0.100573316 -0.17517778
0.08935095 -0.25001806 -0.037788045 0.009772942 0.1275666 -0.03314468 0.069406904 -0.20155868
0.118613705 0.10531649 -0.16536063 0.13964981 -0.02089946 0.258398 -0.289188 -0.2912515
-0.22321874 0.08653567 -0.25000402 -0.26925293 -0.1474099 -0.106208645 -0.26609772 -0.01621463
-0.16817346 0.09979363 0.04054016 0.12865508 -0.24791066 0.08405886 0.100848615 -0.08691558
0.15153977 0.10776887 0.28512144 0.24807347 -0.098887846 0.12615365 0.010184436 0.16344346
-0.0073400754 0.1959893 -0.030930104 -0.10377016 0.26191318 -0.05654779 -0.18339679 0.23467982
0.22563055 0.09581075 -0.0124107525 0.030467357 0.1912092 0.103477776 0.069663875 -0.15092997
-0.14293872 0.020410372 0.241813 0.11391504 -0.15987957 -0.06380489 -0.1514589 -0.1415779
-0.09765182 -0.15744165 -0.011854851 -0.1332949 0.07047903 0.13573799 0.11982901 0.039156385
-0.08145106 0.15012592 -0.15409014 -0.1924339 -0.1835902 -0.17826256 -0.1808681 -0.12886055
0.0840652 -0.1810091 -0.20746145 -0.18790081 -0.042358667 -0.1735181 0.15175927 0.0352596
-0.1830575 -0.18517818 -0.18428408 0.20787655 -0.027655413 -0.017815033 0.11117963 0.015030906
-0.027342565 -0.11222119 0.04413946 0.2261096 0.043042645 0.04594273 -0.034588896 0.19644411
0.08456685 0.21312082 0.026274709 0.116815105 0.05508126 0.03803112 0.0035090887 0.19208446
0.0013784767 0.048242047 0.17468676 0.060335573 0.19039682 -0.00012239022 -0.1639655 0.15135376
00000000: 3c06 6dbe 448b 993d d732 d93d cc64 bdbc
00000010: 0869 0a3e 2c55 9ebd 2023 073e ad2f f8bd
00000020: c1f9 11bd d8e6 58be 2b6b 053e a683 43be
00000030: 4b5e 423e 28a9 b53c 9b19 c6bd 4275 453e
00000040: 950d 56be 74c5 153c 1668 103e efec 7dbe
00000050: cd1c 07be 2a5c 35bd 54db 13bc 6dc0 11be
00000060: e5f0 55be b46f 663e 64d6 16bc bd09 993c
00000070: 17a5 623d e763 1b3e a6e4 57be b38b ffbd
00000080: cdaf c73d 9602 9abc 3717 413e c572 2abe
00000090: 7a8b 2e3e e5da 2e3d b34f 79be 48f8 6e3e
000000a0: 1bd6 80be 55dd bbbd b5f7 0dbd f150 e7bd
000000b0: ce98 39be 6ec8 55bd 13a7 a33d 0a46 2ebe
000000c0: 3471 d53d a8a0 a0bd fd88 02be d42b 1d3d
000000d0: d811 4bbe 3f66 c43d e265 a0bd cdc6 b03d
000000e0: dc8a 78be 1c54 2e3d 93f6 57be e290 67bd
000000f0: e1ab c23d 7183 54be c3ea 0fbe a9d6 8ebe
00000100: f67a 473e fee1 cfbe cff5 223d 3c7f adbd
00000110: 0654 083d 2632 103e a316 39bd 846a 693d
00000120: 0f90 81be 2f7d a43e 677f 8ebe 605b dfbe
00000130: 2582 e5be d680 c6bd 62f9 cdbd ce61 33be
00000140: a2fd b63d 5e02 80be a3c7 1abd b11e 203c
00000150: d2a0 023e b7c2 07bd 3525 8e3d 6665 4ebe
00000160: beeb f23d 2cb0 d73d 4c54 29be 5c00 0f3e
00000170: 5835 abbc be4c 843e 7310 94be eb1e 95be
00000180: 7493 64be 9d39 b13d 8700 80be 85db 89be
00000190: 9ff2 16be eb83 d9bd f63d 88be 8bd4 84bc
000001a0: aa35 2cbe 9a60 cc3d 700d 263d 28be 033e
000001b0: 4bdc 7dbe 0d27 ac3d b889 ce3d cc00 b2bd
000001c0: 3e2d 1b3e edb5 dc3d 70fb 913e f906 7e3e
000001d0: b685 cabd 6c2e 013e 9fdc 263c b95d 273e
000001e0: 0485 f0bb 6bb1 483e 2161 fdbc 7385 d4bd
000001f0: 7c19 863e a89e 67bd 5ecc 3bbe e84f 703e
00000200: b20b 673e 6d38 c43d 7856 4bbc ae96 f93c
00000210: 58cc 433e 28ec d33d efab 8e3d 638d 1abe
00000220: 875e 12be a733 a73c d49d 773e 4a4c e93d
00000230: 78b7 23be 23ac 82bd 0b18 1bbe ccf9 10be
00000240: adfd c7bd 6238 21be d93a 42bc 757e 08be
00000250: 4f57 903d e6fe 0a3e e968 f53d 7262 203d
00000260: d0cf a6bd 9cba 193e cec9 1dbe 640d 45be
00000270: 12ff 3bbe 768a 36be 7d35 39be 05f4 03be
00000280: 602a ac3d 735a 39be c670 54be 1269 40be
00000290: 4880 2dbd bbae 31be c866 1b3e 5f6c 103d
000002a0: 6d73 3bbe 599f 3dbe f7b4 3cbe 97dd 543e
000002b0: 9b8d e2bc d5f0 91bc 25b2 e33d 3044 763c
000002c0: 84fd dfbc 39d4 e5bd 94cb 343d 4689 673e
000002d0: 7c4d 303d 722e 3c3d 16ad 0dbd a528 493e
000002e0: 6231 ad3d 583c 5a3e 0f3e d73c c23c ef3d
000002f0: e39c 613d 85c6 1b3d bdf8 653b cab1 443e
00000300: 01ae b43a 7499 453d 16e1 323e 6f22 773d
00000310: 62f7 423e e055 00b9 92e6 27be 7bfc 1a3e

bias f4 [10]
-0.13935152 0.047056504 -0.17678091 -0.1232318 -0.09265954 0.23067823 0.12802173 0.0024011983
0.1683993 0.12777205
00000000: 2ab2 0ebe 52be 403d 0e06 35be f460 fcbd
00000010: 49c4 bdbd ea36 6c3e 2118 033e 6c5d 1d3b
00000020: de70 2c3e add6 023e

weight f4 [10]
1.0020494 0.9731695 1.0447891 0.97925663 1.0140526 0.98897666 1.0022937 1.0213859
1.0075128 0.9663445
00000000: 2843 803f a321 793f a6bb 853f 90b0 7a3f
00000010: 7acc 813f 932d 7d3f 294b 803f c6bc 823f
00000020: 2ef6 803f 5a62 773f

bias f4 [10]
-0.0097544845 0.009207735 0.012117111 0.0036329087 -0.0033372452 -0.007175459 0.0030527026 -0.0018827147
0.010756969 0.0004953914
00000000: 46d1 1fbc 0adc 163c d986 463c 1816 6e3b
00000010: afb5 5abb 1d20 ebbb da0f 483b 6cc5 f6ba
00000020: 003e 303c 27dd 013a

running_mean f4 [10]
0.13558394 0.17969549 0.28648174 0.46977746 0.48023382 0.48931298 0.47561583 0.33147082
0.3048514 0.3708989
00000000: 84d6 0a3e 1802 383e bcad 923e ac86 f03e
00000010: 35e1 f53e 3b87 fa3e eb83 f33e 8bb6 a93e
00000020: 7c15 9c3e 76e6 bd3e

running_var f4 [10]
0.11374401 0.1642226 0.13231486 0.25416118 0.30617574 0.7148577 0.4176143 0.19883044
0.13653289 0.45205486
00000000: 9ff2 e83d f829 283e 8c7d 073e 6a21 823e
00000010: 11c3 9c3e ea00 373f 8bd1 d53e 359a 4b3e
00000020: 47cf 0b3e bc73 e73e

weight f4 [20, 10, 3, 3]
-0.0002851555 0.015172344 0.039042626 -0.020150444 -0.07810723 0.0047173984 -0.09862396 0.064677656
-0.06760172 0.053717148 -0.011631551 -0.021159675 0.074214965 -0.082826816 0.09116205 -0.08059928
-0.047122642 0.03676099 0.007842183 -0.079445735 0.0557451 -0.059002705 0.124013804 0.0011639501
-0.08612563 0.11406938 0.049618244 -0.058205638 0.0041378303 0.069251955 0.07010509 -0.049849145
0.024712464 -0.061668176 0.017862871 -0.06234011 0.0090607535 0.027650476 0.08583444 -0.038538802
-0.021088678 0.028414393 0.05005215 -0.01764746 0.060642816 0.083362795 0.021868663 -0.03039354
-0.09348241 0.016508218 0.04118771 -0.100778416 -0.07221289 0.019769737 -0.008264925 -0.024720367
-0.09426792 0.04151491 -0.07759066 0.050218206 -0.03767486 -0.08615744 0.019865418 0.028931318
0.12226279 0.12245405 0.06320087 0.027114011 -0.04051405 -0.027979879 0.015376247 0.14110263
-0.009746504 -0.0018227899 -0.04990901 -0.026124025 0.03445197 0.049480096 0.021681169 -0.09620249
0.041353773 0.021043118 -0.070562705 -0.052132674 0.04901948 -0.098624885 -0.04608091 0.10328429
-0.04576011 -0.018401427 0.079703666 -0.004812318 0.109428585 0.12023312 0.13773838 0.12803896
0.13457297 0.009299041 -0.03024284 0.048437983 -0.15106106 0.026270369 -0.057425395 -0.06951034
0.07046279 -0.09635317 -0.06892372 -0.09518729 0.11872834 -0.0024135106 0.07131495 -0.0439714
0.09287011 0.0782377 -0.083063446 0.02511102 0.15128706 -0.00057608925 -0.11037313 -0.034455538
-0.031388912 0.0052665863 -0.09988482 -0.105298534 -0.096295096 -0.0022378338 -0.033889253 -0.064305864
0.005889124 -0.08487873 0.013564436 -0.015086901 0.021120507 0.01897874 -0.0031793935 -0.08445275
0.05997473 -0.008079138 0.026464 0.07697125 0.08584282 0.11950884 0.018037923 0.118572436
0.15645023 0.0544986 -0.017128026 -0.0022275208 -0.013605596 -0.04425097 0.15172249 0.10451065
0.049569353 -0.09540162 -0.058498967 0.03563512 0.028222784 -0.053844873 0.005660819 -0.0019057884
-0.011379595 0.04787014 -0.11084637 -0.039953437 -0.000428206 -0.0076563703 -0.12435778 0.027328506
0.035614252 -0.13778014 -0.011478713 -0.11256207 -0.111449085 -0.124197 0.10881947 0.009994096
-0.08254809 0.03698204 -0.12650517 -0.05845544 -0.048623834 0.010574058 -0.047607332 0.05875154
-0.07063244 -0.04176383 0.18470007 0.11149139 0.060942207 -0.09437356 0.0042307815 0.03967913
0.06738921 -0.06970566 -0.05757545 0.057054706 -0.09003004 0.01959226 0.13552469 0.10930109
0.062495206 0.04584742 0.07526931 -0.018473648 0.14072692 0.020939095 -0.05924358 0.043849163
-0.054 0.119588956 0.040894024 0.11563729 -0.012391111 -0.12776035 -0.069829606 0.09026171
-0.03135697 -0.03770328 0.06801907 -0.064144924 -0.07631082 0.06098689 0.043241613 0.044476364
0.051734585 0.043516114 0.0070576603 -0.038132355 0.009227267 -0.07751775 0.015507915 0.08149296
-0.09910143 -0.0316706 -0.01337504 0.07159789 -0.1334816 -0.04997571 0.05233692 -0.13716199
0.016828923 -0.04114911 -0.035102792 0.10577035 -0.052751392 -0.04146388 0.10878264 0.15891226
0.017110994 0.13244842 0.03799241 0.13432488 -0.122366235 0.036425047 0.07912746 -0.13982016
00000000: ec80 95b9 6c95 783c 29eb 1f3d 8b12 a5bc
00000010: aff6 9fbd 6894 9a3b 5cfb c9bd b875 843d
00000020: c572 8abd 8306 5c3d 4392 3ebc 0e57 adbc
00000030: 04fe 973d 1ba1 a9bd 2bb3 ba3d 3c11 a5bd
00000040: ac03 41bd b192 163d 807c 003c 72b4 a2bd
00000050: f954 643d d2ac 71bd f3fa fd3d af8f 983a
00000060: a262 b0bd 359d e93d 803c 4b3d 0969 6ebd
00000070: a396 873b f8d3 8d3d 4293 8f3d 9e2e 4cbd
00000080: cb71 ca3c c597 7cbd 2855 923c 5858 7fbd
00000090: 8e73 143c 4083 e23c f8c9 af3d ddda 1dbd
000000a0: 2ac2 acbc 4dc5 e83c 7c03 4d3d 6891 90bc
000000b0: 9a64 783d 1dba aa3d e925 b33c e0fb f8bc
000000c0: b573 bfbd 3e3c 873c 72b4 283d ea64 cebd
000000d0: 5ae4 93bd 25f4 a13c 9c69 07bc 5e82 cabc
000000e0: 8a0f c1bd 8a0b 2a3d dae7 9ebd 9bb1 4d3d
000000f0: f450 1abd 5073 b0bd cdbc a23c 5f01 ed3c
00000100: ea64 fa3d 30c9 fa3d 756f 813d 341e de3c
00000110: 0ff2 25bd 0f36 e5bc a8ec 7b3c 357d 103e
00000120: cdaf 1fbc aeea eeba 646d 4cbd 0d02 d6bc
00000130: 821d 0d3d a4ab 4a3d b59c b13c d005 c5bd
00000140: 9362 293d 9e62 ac3c 2e83 90bd 1289 55bd
00000150: a6c8 483d d8fb c9bd 56bf 3cbd b786 d33d
00000160: f46e 3bbd 97be 96bc ad3b a33d a6b0 9dbb
00000170: 181c e03d c83c f63d 4a0b 0d3e a51c 033e
00000180: 7fcd 093e 015b 183c d5bf f7bc e866 463d
00000190: c0af 1abe f534 d73c e436 6bbd 705b 8ebd
000001a0: cc4e 903d d054 c5bd e127 8dbd 8ef1 c2bd
000001b0: d827 f33d fd2b 1ebb 930d 923d 5b1b 34bd
000001c0: af32 be3d 163b a03d 2b1d aabd a0b5 cd3c
000001d0: ffea 1a3e b204 17ba 4f0b e2bd 4021 0dbd
000001e0: a991 00bd 5493 ac3b 6a90 ccbd c2a6 d7bd
000001f0: 5d36 c5bd 9fa8 12bb 75cf 0abd cbb2 83bd
00000200: 8df9 c03b e6d4 adbd 5e3d 5e3c 0d2f 77bc
00000210: ea04 ad3c 4d79 9b3c 5f5d 50bb 90f5 acbd
00000220: 10a8 753d 5c5e 04bc 08cb d83c 1aa3 9d3d
00000230: 5cce af3d 0dc1 f43d 44c4 933c 1bd6 f23d
00000240: 7d34 203e ed39 5f3d 1350 8cbc 99fb 11bb
00000250: 01ea 5ebc 8140 35bd 245d 1b3e ae09 d63d
00000260: 3c09 4b3d ed61 c3bd 9d9c 6fbd 22f6 113d
00000270: 7833 e73c 718c 5cbd 647e b93b a6cb f9ba
00000280: 7b71 3abc 7b13 443d 6c03 e3bd 37a6 23bd
00000290: d680 e0b9 4ae2 fabb 4baf febd 08e0 df3c
000002a0: 40e0 113d 3d16 0dbe 3611 3cbc f186 e6bd
000002b0: 6b3f e4bd ff5a febd bedc de3d 47be 233c
000002c0: f90e a9bd 7b7a 173d 928a 01be f96e 6fbd
000002d0: c929 47bd d03e 2d3c e8ff 42bd 74a5 703d
000002e0: bea7 90bd 8d10 2bbd 0422 3d3e 9955 e43d
000002f0: 899e 793d ed46 c1bd 5ea2 8a3b 9586 223d
00000300: 5b03 8a3d d7c1 8ebd 3cd4 6bbd 32b2 693d
00000310: ab61 b8bd f27f a03c fcc6 0a3e 40d9 df3d
00000320: f9fa 7f3d 81ca 3b3d cc26 9a3d 0c56 97bc
00000330: b81a 103e 7788 ab3c 65a9 72bd 2e9b 333d
00000340: 1b2f 5dbd 0eeb f43d 7e80 273d 3ed3 ec3d
00000350: 1604 4bbc 9cd3 02be d302 8fbd 22db b83d
00000360: 2b70 00bd c16e 1abd 954d 8b3d 6a5e 83bd
00000370: d948 9cbd 64cd 793d 1e1e 313d d92c 363d
00000380: a5e7 533d f43d 323d f243 e73b ac30 1cbd
00000390: f62d 173c a0c1 9ebd e914 7e3c c8e5 a63d
000003a0: b1f5 cabd 08b9 01bd fc22 5bbc eaa1 923d
000003b0: 67af 08be 55b3 4cbd 3d5f 563d 3174 0cbe
000003c0: cfdc 893c f88b 28bd f2c7 0fbd 209e d83d
000003d0: d811 58bd 08d6 29bd 6fc9 de3d e5b9 223e
000003e0: 5b2c 8c3c 8fa0 073e ee9d 1b3d 768c 093e
000003f0: 269b fabd 6e32 153d 940d a23d 042d 0fbe

bias f4 [20]
-0.026942663 0.039432053 -0.05503484 -0.07591981 0.05944806 0.03175538 -0.04264284 -0.017072903
0.041356154 -0.109792285 0.032863338 0.03442328 0.012555711 0.023049757 -0.07971023 -0.01588064
-0.041412428 0.019180814 -0.03851655 0.066413805
00000000: dcb6 dcbc 8183 213d 366c 61bd d87b 9bbd
00000010: cf7f 733d ee11 023d 42aa 2ebd 79dc 8bbc
00000020: 1265 293d c7da e0bd b59b 063d 6dff 0c3d
00000030: 78b6 4d3c d8d2 bc3c 1e3f a3bd 1e18 82bc
00000040: 14a0 29bd 1521 9d3c 88c3 1dbd f603 883d

weight f4 [20]
1.0630987 0.9920365 0.9717597 0.99649477 0.9803105 0.9994996 1.0045094 0.98800826
1.0007617 1.007421 0.9812508 0.97905874 0.9920638 0.98931754 0.9904922 1.0672035
1.008728 1.0217544 1.000965 0.97928506
00000000: 9e13 883f 1bf6 7d3f 3ec5 783f 481a 7f3f
00000010: a1f5 7a3f 35df 7f3f c493 803f 1cee 7c3f
00000020: f618 803f 2cf3 803f 4133 7b3f 98a3 7a3f
00000030: e5f7 7d3f ea43 7d3f e690 7d3f 209a 883f
00000040: 001e 813f d9c8 823f 9f1f 803f 6db2 7a3f

bias f4 [20]
0.0030830102 -0.0036956915 -0.0057698563 -0.014997749 -0.0016819752 -0.002161548 -0.004237187 0.00071570365
0.010723627 0.0075186235 0.012303086 -0.00677202 0.008259721 -0.0036388517 0.010440475 0.0011122392
0.0067177066 -0.0063118674 -0.007402206 0.004210747
00000000: 540c 4a3b 6a33 72bb 1011 bdbb 1eb9 75bc
00000010: b975 dcba c2a8 0dbb 1ad8 8abb 0f9e 3b3a
00000020: 27b2 2f3c c95e f63b e292 493c d2e7 ddbb
00000030: c853 073c cd79 6ebb 870e 2b3c 8ec8 913a
00000040: 3520 dc3b c8d3 cebb 348e f2bb 4efa 893b

running_mean f4 [20]
0.44942057 0.44002897 0.37551618 0.8737711 0.33600998 0.7872491 0.4595975 0.46191034
0.3827769 0.1762361 0.5186906 0.24175248 0.17144853 0.28987503 0.20176773 0.3947037
0.26182213 0.47515506 0.22086667 0.2016855
00000000: 741a e63e 7a4b e13e a843 c03e 76af 5f3f
00000010: 8009 ac3e 2889 493f 5d50 eb3e 837f ec3e
00000020: 55fb c33e 3c77 343e e8c8 043f f68d 773e
00000030: 3490 2f3e 806a 943e 339c 4e3e 9a16 ca3e
00000040: 8d0d 863e 8647 f33e df2a 623e a586 4e3e

running_var f4 [20]
0.30179456 0.45421755 0.3537977 1.0221944 0.22121711 0.82360256 0.31733266 0.33010483
0.5545036 0.100381434 0.40193546 0.15254375 0.075832285 0.14964364 0.12683578 0.42967188
0.16799302 0.5224915 0.10216665 0.077837154
00000000: d184 9a3e 348f e83e f924 b53e 44d7 823f
00000010: bd86 623e 9ed7 523f 6d79 a23e 8003 a93e
00000020: f3f3 0d3f c894 cd3d 7cca cd3e 6e34 1c3e
00000030: f54d 9b3d 2f3c 193e 3de1 013e f4fd db3e
00000040: 5d06 2c3e 01c2 053f c03c d13d 1669 9f3d

weight f4 [32, 20, 1, 1]
0.04349561 -0.039041184 -0.06916247 -0.048473854 -0.0011726117 -0.017490407 0.009098782 0.06160092
-0.14732535 -0.10517945 0.13478665 -0.13474923 -0.08476188 0.043626104 0.11231391 0.20610958
-0.19550508 0.15570894 0.008403153 -0.18917893 0.15671097 -0.063625455 -0.21757333 -0.025359394
-0.124002464 -0.21805736 -0.23134054 -0.14377604 0.15252662 0.008755721 -0.07535159 -0.1964998
0.049695995 -0.18792826 -0.17105421 -0.11558712 -0.12254165 -0.04530734 -0.034158498 0.06062211
0.054448556 -0.104239546 0.06973046 -0.19856983 0.10581792 -0.12337859 -0.085440986 -0.19046353
-0.22523111 -0.02185404 0.010478499 0.005507438 -0.1837927 0.12148274 0.11413978 -0.17178075
0.10911316 0.023854861 -0.20166324 -0.18793082 0.18130785 -0.19137666 0.15718941 0.011168114
0.14491238 0.16617222 -0.05775833 -0.107392155 0.19053979 0.25509474 0.057812124 -0.20088698
-0.11731446 -0.18338114 -0.1741624 -0.21102963 0.08230064 -0.13833876 0.008090938 -0.20099922
-0.10471538 -0.09280504 0.17153984 -0.113102205 -0.08176065 0.13283774 0.037439104 0.23531158
-0.13152085 0.015406566 -0.026350047 -0.009058516 -0.083792545 0.021963393 -0.20077193 0.14313738
0.15460806 -0.19525738 -0.1401592 -0.01770762 -0.04978591 0.03831128 0.0844581 0.12604357
-0.18765523 0.11827546 0.13532661 -0.045550037 0.0098595945 -0.054393757 0.059256747 -0.17316955
0.11801314 -0.21058859 -0.120662846 0.2874098 0.12301502 -0.23622778 0.1479791 0.14955485
0.21021315 0.1893691 0.09544181 0.084128596 0.15151152 0.11926007 0.08424269 -0.124396
0.14631361 -0.24395588 -0.121088535 -0.10025878 -0.15520033 0.018871289 -0.017345704 0.2287657
-0.12880036 0.20809425 0.06494035 -0.015330507 0.20115142 -0.00082446623 0.0020051834 -0.10423781
-0.13646105 0.01814716 0.10343381 -0.033742577 0.054931767 -0.16655609 -0.03926543 0.201802
0.1433924 -0.041517675 -0.20133689 0.016585203 -0.1357722 0.22690701 -0.20832287 -0.16450968
0.20217602 -0.18538183 0.04776091 -0.1568267 0.050156098 0.15006109 -0.12188328 -0.039574757
0.18829098 0.21922985 -0.15235299 -0.18016766 -0.07102362 -0.17875752 0.20462103 0.186427
0.1861706 -0.026623325 -0.1047195 0.18301767 -0.06600352 -0.009111353 0.056084417 0.17506374
-0.15780252 0.1608566 0.17237298 0.0039654044 -0.11011177 -0.005661433 -0.14645213 0.13889861
-0.044238307 -0.24940822 -0.09667746 0.10397512 -0.066932105 0.009158342 -0.03754549 -0.21598892
0.069679335 -0.19756696 -0.13746433 0.2018719 0.040606983 0.18945906 -0.23009926 -0.07622931
0.11884526 -0.051007856 0.030502737 0.22062564 0.15483643 -0.0848716 0.056353007 -0.21140793
-0.13645202 -0.08364501 0.054516777 0.057670355 -0.10129384 0.015339239 -0.10358561 0.05815
-0.13501626 -0.13111682 0.19441995 0.09774796 -0.2120618 0.1810692 0.0005859968 -0.09619871
0.07691272 -0.009216796 0.095846966 -0.105607726 0.21415038 0.105234504 -0.14659229 0.18751349
0.11312334 -0.18514194 -0.061362334 -0.046841163 0.15149648 0.20316102 -0.20700303 -0.09920916
0.07780827 0.1025337 -0.13318036 0.08808102 0.082389936 -0.1037901 -0.005539409 -0.05032507
00000000: 7428 323d a6e9 1fbd 0ea5 8dbd 858c 46bd
00000010: 52b2 99ba 0b48 8fbc 0f13 153c 3f51 7c3d
00000020: 75dc 16be 5368 d7bd 8305 0a3e b4fb 09be
00000030: a397 adbd 49b1 323d d604 e63d 640e 533e
00000040: 7c32 48be 2a72 1f3e 61ad 093c 1fb8 41be
00000050: d778 203e 104e 82bd 8bcb 5ebe 81be cfbc
00000060: 01f5 fdbd 6e4a 5fbe 89e4 6cbe 073a 13be
00000070: f02f 1c3e 2874 0f3c ef51 9abd 3e37 49be
00000080: 078e 4b3d 4470 40be d628 2fbe f1b8 ecbd
00000090: 1ef7 fabd 3094 39bd c8e9 0bbd e44e 783d
000000a0: 7305 5f3d 8b7b d5bd d8ce 8e3d e455 4bbe
000000b0: 11b7 d83d eaad fcbd affb aebd df08 43be
000000c0: fca2 66be 3e07 b3bc 03ae 2b3c bd77 b43b
000000d0: 2734 3cbe f1cb f83d 1ec2 e93d 4be7 2fbe
000000e0: b876 df3d 456b c33c cf80 4ebe f070 40be
000000f0: c4a8 393e 3ef8 43be 43f6 203e 77fa 363c
00000100: e963 143e 0d29 2a3e 0094 6cbd 6bf0 dbbd
00000110: dd1c 433e c79b 823e 68cc 6c3d 51b5 4dbe
00000120: 9042 f0bd 44c8 3bbe a157 32be 2718 58be
00000130: 3d8d a83d ada8 0dbe db8f 043c bdd2 4dbe
00000140: 0475 d6bd 9210 bebd 24a8 2f3e 21a2 e7bd
00000150: 2172 a7bd 9e06 083e bf59 193d 85f5 703e
00000160: 67ad 06be d26b 7c3c 0edc d7bc 2b6a 14bc
00000170: 6d9b abbd 93ec b33c 2897 4dbe 9b92 123e
00000180: 9351 1e3e 8df1 47be e585 0fbe 920f 91bc
00000190: 4fec 4bbd 4aec 1c3d 5ef8 ac3d 9111 013e
000001a0: b128 40be 683a f23d 0f93 0a3e ad92 3abd
000001b0: 238a 213c fdcb 5ebd 34b7 723d 5c53 31be
000001c0: e0b0 f13d 89a4 57be 151e f7bd 6127 933e
000001d0: 4cef fb3d b2e5 71be d587 173e e824 193e
000001e0: 1e42 573e f9e9 413e ff76 c33d 9d4b ac3d
000001f0: d625 1b3e a03e f43d 6e87 ac3d 54c3 febd
00000200: 3cd3 153e 92cf 79be 44fd f7bd 7a54 cdbd
00000210: d6ec 1ebe f697 9a3c 9418 8ebc 8e41 6a3e
00000220: 3ee4 03be a916 553e 72ff 843d cf2c 7bbc
00000230: a3fa 4d3e fe20 58ba 6569 033b a27a d5bd
00000240: 72bc 0bbe 5aa9 943c 1bd5 d33d a835 0abd
00000250: 2200 613d ae8d 2abe cad4 20bd 2fa5 4e3e
00000260: 75d5 123e 700e 2abd 422b 4ebe b1dd 873c
00000270: de07 0bbe 505a 683e 9752 55be 3a75 28be
00000280: 3b07 4f3e bcd4 3dbe f2a0 433d 2e97 20be
00000290: 7b70 4d3d 9da9 193e f19d f9bd 2419 22bd
000002a0: 5acf 403e ca7d 603e 6c02 1cbe df7d 38be
000002b0: d574 91bd 360c 37be 2d88 513e b8e6 3e3e
000002c0: 81a3 3e3e 2919 dabc 2d77 d6bd fc68 3b3e
000002d0: da2c 87bd c947 15bc c6b8 653d e943 333e
000002e0: fc96 21be 98b7 243e 8b82 303e 39f0 813b
000002f0: 4882 e1bd 8b83 b9bb 8cf7 15be 703b 0e3e
00000300: 3a33 35bd de64 7fbe d5fe c5bd e8f0 d43d
00000310: b313 89bd df0c 163c 4dc9 19bd 332c 5dbe
00000320: 0ab4 8e3d fe4e 4abe 73c3 0cbe 82b7 4e3e
00000330: 8253 263d 8e01 423e 249f 6bbe 1d1e 9cbd
00000340: 2565 f33d 9ded 50bd e0e0 f93c b0eb 613e
00000350: 718d 1e3e 29d1 adbd 69d2 663d 527b 58be
00000360: 14ba 0bbe 134e abbd fc4c 5f3d c037 6c3d
00000370: 2573 cfbd 6e51 7b3c b124 d4bd b22e 6e3d
00000380: b441 0abe 7d43 06be 0616 473e 1530 c83d
00000390: ba26 59be 346a 393e 949d 193a d403 c5bd
000003a0: 6b84 9d3d 0b02 17bc 6a4b c43d dd48 d8bd
000003b0: 3d4a 5b3e 3085 d73d 4a1c 16be 8903 403e
000003c0: 36ad e73d d995 3dbe 1257 7bbd 85dc 3fbd
000003d0: e521 1b3e 7109 503e 9af8 53be 2c2e cbbd
000003e0: f159 9f3d 30fd d13d 6f60 08be d263 b43d
000003f0: 0ebc a83d e78f d4bd ee83 b5bb a921 4ebd

bias f4 [32]
0.19571824 -0.1764244 0.07739987 0.036399223 -0.07441836 0.018416932 0.14365405 0.16683023
-0.03924674 0.10208906 -0.21819545 0.0006623152 0.1482615 0.1676684 -0.20722093 -0.17942493
0.1744929 -0.051479552 0.021463092 -0.0998286 -0.14329241 0.1858907 0.0012971289 -0.10878797
0.018330377 0.08769394 -0.12526082 -0.18795185 -0.07986606 0.124215506 -0.14192344 0.1535506
00000000: 5d6a 483e 99a8 34be d383 9e3d 5a17 153d
00000010: a768 98bd 1bdf 963c 0c1a 133e 8bd5 2a3e
00000020: 31c1 20bd 1214 d13d a16e 5fbe 389f 2d3a
00000030: ddd1 173e 44b1 2b3e b931 54be 2bbb 37be
00000040: 44ae 323e 39dc 52bd 5ed3 af3c f072 ccbd
00000050: 3fbb 12be 225a 3e3e 6c04 aa3a 3acc debd
00000060: 9629 963c e198 b33d 5f44 00be 7376 40be
00000070: d190 a3bd b364 fe3d 6154 11be 5e3c 1d3e

weight f4 [32]
1.0070279 0.9846647 0.9897296 1.0118454 0.9888095 1.0332638 0.9913466 0.99794906
0.98661244 1.0185883 1.0067018 0.9967988 1.0039966 1.0094851 1.0034509 1.011605
0.9867814 0.9963899 0.99881375 1.00355 1.0130203 1.0127916 0.9850676 1.0046467
0.98093325 0.9913651 0.9894081 0.99919546 1.005366 0.999457 0.99603504 0.9888221
00000000: 4ae6 803f fc12 7c3f eb5e 7d3f 2684 813f
00000010: 9f22 7d3f fd41 843f e4c8 7d3f 9779 7f3f
00000020: a292 7c3f 1a61 823f 9bdb 803f 352e 7f3f
00000030: f682 803f cf36 813f 1471 803f 467c 813f
00000040: b59d 7c3f 6913 7f3f 42b2 7f3f 5474 803f
00000050: a6aa 813f 28a3 813f 642d 7c3f 4398 803f
00000060: 711e 7b3f 1aca 7d3f d949 7d3f 46cb 7f3f
00000070: d5af 803f 6adc 7f3f 27fc 7e3f 7223 7d3f

bias f4 [32]
-0.007361942 0.024001157 -0.0068789017 0.0069996747 0.0077838935 -0.023687148 -0.020549873 -0.009777995
0.0056211576 -0.018917201 -0.0093562165 0.008565844 0.0011889088 -0.029586872 -0.0025595874 -0.011490561
-0.014882891 -0.01820409 -0.0126430625 -0.00923344 0.011595953 0.010645787 0.012041494 -0.00676134
-0.00037227003 0.002218265 -0.01393333 -0.007353892 -0.0052903434 -0.004319437 -0.0061461097 0.0016224647
00000000: 723c f1bb 139e c43c 6968 e1bb 875d e53b
00000010: 0810 ff3b 8d0b c2bc 3558 a8bc e233 20bc
00000020: b031 b83b 3ff8 9abc d14a 19bc c157 0c3c
00000030: 29d5 9b3a 2b60 f2bc c0be 27bb e842 3cbc
00000040: 5fd7 73bc be20 95bc d924 4fbc db47 17bc
00000050: f4fc 3d3c ab6b 2e3c b049 453c 3b8e ddbb
00000060: 3d2d c3b9 5060 113b 9f48 64bc ebf8 f0bb
00000070: 9e5a adbb 108a 8dbb 4e65 c9bb e2a8 d43a

running_mean f4 [32]
0.32914826 0.22923686 0.27149707 0.29621702 0.21564545 0.23261975 0.31975096 0.31492314
0.21219608 0.40224868 0.116153724 0.2001005 0.23283534 0.35206985 0.134176 0.09990814
0.37902522 0.19857678 0.30531317 0.15220743 0.2832326 0.42980924 0.30738938 0.27434626
0.38590917 0.28616324 0.1922212 0.20199145 0.20782852 0.24214861 0.20297293 0.34484494
00000000: 1f86 a83e 11bd 6a3e aa01 8b3e c2a9 973e
00000010: 29d2 5c3e df33 6e3e 66b6 a33e 9b3d a13e
00000020: ee49 593e 8af3 cd3e 01e2 ed3d 25e7 4c3e
00000030: 636c 6e3e 8042 b43e 6f65 093e a49c cc3d
00000040: 980f c23e b657 4b3e 0252 9c3e 44dc 1b3e
00000050: dd03 913e f50f dc3e 2462 9d3e 1d77 8c3e
00000060: e395 c53e fd83 923e a2d5 443e d9d6 4e3e
00000070: 00d1 543e cef5 773e 23d8 4f3e 848f b03e

running_var f4 [32]
0.13647762 0.09916044 0.13384202 0.18588687 0.09486405 0.103902675 0.2134922 0.12224669
0.14020242 0.29637307 0.05234249 0.113646865 0.07282137 0.22061728 0.053032883 0.03973966
0.22620435 0.112072125 0.1893315 0.09396792 0.20560065 0.23061618 0.14818455 0.14793967
0.20608537 0.29785368 0.10437943 0.15764695 0.10503271 0.09353223 0.12338175 0.1843061
00000000: cac0 0b3e a114 cb3d e20d 093e 2159 3e3e
00000010: 1548 c23d edca d43d b39d 5a3e 795c fa3d
00000020: 3991 0f3e 36be 973e 1465 563d b0bf e83d
00000030: 5f23 953d 7fe9 613e 0239 593d 0ec6 223d
00000040: 1da2 673e 1286 e53d 1ee0 413e 4172 c03d
00000050: fa88 523e a626 6c3e b1bd 173e 7f7d 173e
00000060: 0b08 533e 4780 983e e2c4 d53d 346e 213e
00000070: 641b d73d d38d bf3d 92af fc3d bdba 3c3e

weight f4 [10, 32, 3, 3]
0.028840149 0.09688571 0.011850717 0.02190049 0.07994659 -0.010324325 -0.02249023 -0.040366482
0.03785659 0.009298122 -0.036235467 0.030817518 -0.02178862 0.005420742 -0.0082045775 -0.06063217
-0.015922522 -0.06358199 -0.010767385 -0.07605069 -0.078777656 -0.07521893 -0.057289112 0.0200298
0.048223164 -0.007269832 -0.039438244 0.010534662 -0.07030261 -0.017084185 0.01775496 0.019015985
-0.06282849 -0.046395306 -0.026653083 -0.040611025 -0.021651777 0.010043705 0.03508276 -0.04105784
-0.025651872 -0.03135121 -0.020604849 0.07756682 0.03640823 0.020625122 0.08305136 0.09939555
-0.020374358 0.032159157 0.050166484 0.013407122 -0.004832926 0.014016967 -0.031439193 0.05357897
0.0037542866 -0.020346006 0.06631644 0.086450785 0.057542566 0.069518454 0.05269467 -0.05666564
-0.023621282 0.007019778 -0.017893512 -0.017362563 0.06667084 -0.048252746 0.014718926 0.030633094
-0.01973667 0.032272033 0.035749692 -0.0827517 0.01037783 -0.067238085 -0.023640461 0.026872125
0.02179544 -0.009017645 0.02788721 0.027012218 0.004469491 0.057080146 0.004298888 -0.015335441
7.996871e-05 0.101840265 0.011535045 0.019724958 0.061035693 -0.021057086 0.021141391 -0.028560527
0.050770488 0.04248644 0.0016586891 -0.009912885 0.0012703052 0.013213459 -0.034970544 -0.0073973923
-0.06306387 -0.0028485633 -0.045344133 0.036480956 -0.05303621 0.03143753 0.017125564 0.0252144
-0.038800668 -0.055109326 -0.02380525 -0.0019447702 0.039759543 0.013743369 -0.058839485 0.0063268607
0.008788694 0.013413018 0.017149998 -0.05152789 -0.049766406 0.010104887 -0.066078894 -0.034604974
-0.058377355 0.011912034 -0.018009482 -0.040663317 -0.050779022 -0.010595242 -0.03635886 0.019280562
-0.052482773 0.018493982 0.037966363 0.06629927 0.019357001 -0.0037899248 -0.023946749 0.007950111
-0.021719994 -0.037849244 -0.0081496285 0.015198542 -0.0719646 -0.044046737 -0.018774476 0.030008918
-0.059693843 0.030487834 -0.013883779 0.04387413 -0.028089799 -0.054732453 -0.031862397 0.0017134901
-0.009066002 0.024654895 -0.030564038 -0.043247983 -0.057012744 -0.007349547 -0.035134144 -0.02273796
0.055323884 -0.0036697339 0.008585628 -0.09006416 -0.025903722 -0.06483683 -0.038510874 -0.066643395
-0.039990246 0.0029701167 -0.061307054 -0.032051593 -0.01711414 0.005771326 0.06102868 0.046045616
0.007183402 0.040394556 -0.039464455 0.032055367 0.042844262 0.035774056 0.03231026 -0.050775863
0.059404068 0.049170785 0.047100898 -0.07252142 -0.049474496 0.06832422 -0.010358354 0.02405813
-0.026877504 -0.046209253 -0.06873897 -0.048636105 -0.026742503 0.00084610697 -0.053591445 0.0479812
-0.06293243 -0.062435843 -0.034761127 0.001219372 -0.02714882 0.08426475 0.0142345885 0.046294026
0.0027058863 -0.0671079 -0.036303386 0.03494638 -0.06826755 0.011870764 0.037949834 -0.0061746836
-0.045282867 -0.017899465 -0.08040082 -0.03151186 -0.003003455 -0.027069675 -0.03527206 -0.0579673
-0.06815494 -0.03180164 0.09175902 -0.016850362 -0.018239718 0.10808201 0.03398579 0.053499945
0.005425649 -0.019958932 -0.028612114 -0.013899735 -0.01197698 0.0388774 -0.038536407 0.010436871
0.014408467 -0.02151188 -0.020569863 -0.029946025 -0.038606137 0.012396783 0.047623117 0.0043741125
00000000: 2d42 ec3c 046c c63d 8229 423c a868 b33c
00000010: 0abb a33d 5c27 29bc 6e3d b8bc 5357 25bd
00000020: 830f 1b3d 2657 183c a46b 14bd 0575 fc3c
00000030: 0c7e b2bc 7ba0 b13b 7e6c 06bc 7059 78bd
00000040: f36f 82bc 4637 82bd b069 30bc 77c0 9bbd
00000050: 2e56 a1bd 620c 9abd fda7 6abd 8915 a43c
00000060: a785 453d c537 eebb ff89 21bd 9399 2c3c
00000070: d1fa 8fbd 22f4 8bbc da72 913c 69c7 9b3c
00000080: 39ac 80bd 0109 3ebd 9157 dabc bf57 26bd
00000090: 115f b1bc 5a8e 243c f1b2 0f3d 442c 28bd
000000a0: e023 d2bc 206a 00bd 80cb a8bc 5adb 9e3d
000000b0: cc20 153d 04f6 a83c d516 aa3d e58f cb3d
000000c0: 20e8 a6bc 52b9 033d 5f7b 4d3d 8ca9 5b3c
000000d0: 865d 9ebb 6ca7 653c 62c6 00bd 9f75 5b3d
000000e0: 7a0a 763b abac a6bc ead0 873d 1c0d b13d
000000f0: c1b1 6b3d b15f 8e3d 5ed6 573d 3b1a 68bd
00000100: 6b81 c1bc 2a06 e63b 6a95 92bc ef3b 8ebc
00000110: b98a 883d aca4 45bd a627 713c 41f2 fa3c
00000120: ccae a1bc ae2f 043d 456e 123d b979 a9bd
00000130: c607 2a3c 1fb4 89bd a4a9 c1bc ee22 dc3c
00000140: 5a8c b23c bfbe 13bc b873 e43c ba48 dd3c
00000150: cf74 923b dfcc 693d b0dd 8c3b 8041 7bbc
00000160: e0b4 a738 a191 d03d 7cfd 3c3c 3c96 a13c
00000170: 9000 7a3d e97f acbc b630 ad3c c4f7 e9bc
00000180: b7f4 4f3d 4306 2e3d 5f68 d93a a769 22bc
00000190: 5f80 a63a 447d 583c 463d 0fbd d365 f2bb
000001a0: a127 81bd f6ae 3abb c5ba 39bd 0e6d 153d
000001b0: 7f3c 59bd a4c4 003d e94a 8c3c 6e8e ce3c
000001c0: 73ed 1ebd 51ba 61bd 3a03 c3bc a9e7 feba
000001d0: e7da 223d de2b 613c ac01 71bd 8e51 cf3b
000001e0: 74fe 0f3c 46c2 5b3c 277e 8c3c e90e 53bd
000001f0: dcd7 4bbd f88e 253c 5f54 87bd f2bd 0dbd
00000200: 181d 6fbd b12a 433c 9f88 93bc 948e 26bd
00000210: aafd 4fbd aa97 2dbc 07ed 14bd 45f2 9d3c
00000220: 2df8 56bd b180 973c 9e82 1b3d e9c7 873d
00000230: 9392 9e3c 6360 78bb f92b c4bc 2f41 023c
00000240: 21ee b1bc cf07 1bbd 0586 05bc 4e03 793c
00000250: 2d62 93bd 5a6a 34bd eecc 99bc 43d5 f53c
00000260: 8881 74bd 9fc1 f93c ca78 63bc 5cb5 333d
00000270: 941c e6bc 232f 60bd 2582 02bd 3097 e03a
00000280: 9289 14bc 10f9 c93c 6f61 fabc cc24 31bd
00000290: 3286 69bd 78d4 f0bb d2e8 0fbd f544 babc
000002a0: 4c9b 623d eb7f 70bb bcaa 0c3c 8f73 b8bd
000002b0: 0b34 d4bc 2cc9 84bd 94bd 1dbd 557c 88bd
000002c0: d0cc 23bd 4aa6 423b 1b1d 7bbd 8848 03bd
000002d0: f432 8cbc 641d bd3b 36f9 793d 549a 3c3d
000002e0: be62 eb3b c374 253d 7ba5 21bd 7d4c 033d
000002f0: 777d 2f3d d187 123d c357 043d 5afa 4fbd
00000300: ae51 733d 4e67 493d dfec 403d 1c86 94bd
00000310: c5a5 4abd 92ed 8b3d 16b6 29bc 8e15 c53c
00000320: 362e dcbc ea45 3dbd 04c7 8cbd a736 47bd
00000330: 1813 dbbc 47cd 5d3a b482 5bbd ef87 443d
00000340: b8e2 80bd babc 7fbd af61 0ebd 56d3 9f3a
00000350: 3467 debc ff92 ac3d 3138 693c ce9e 3d3d
00000360: 3d55 313b de6f 89bd dcb2 14bd ef23 0f3d
00000370: dbcf 8bbd 987d 423c 4971 1b3d 0055 cabb
00000380: 877a 39bd e6a1 92bc 2fa9 a4bd 9512 01bd
00000390: 9dd5 44bb 39c1 ddbc 7079 10bd 1f6f 6dbd
000003a0: d194 8bbd 7042 02bd 27ec bb3d c509 8abc
000003b0: 766b 95bc 1a5a dd3d af34 0b3d c222 5b3d
000003c0: a5c9 b13b ea80 a3bc f463 eabc b7bb 63bc
000003d0: 183b 44bc e93d 1f3d 5ad8 1dbd 69ff 2a3c
000003e0: 7e11 6c3c af39 b0bc 2182 a8bc 5e51 f5bc
000003f0: 7821 1ebd e01b 4b3c 7510 433d b754 8f3b

bias f4 [10]
-0.037922394 -0.061328165 0.011649196 -0.0901675 -0.055257395 0.023692675 0.0804598 -0.014275886
0.06575202 0.044898503
00000000: 8354 1bbd 3e33 7bbd 45dc 3e3c bda9 b8bd
00000010: 9455 62bd 2417 c23c 1cc8 a43d 68e5 69bc
00000020: ffa8 863d 7ee7 373d

weight f4 [10]
0.9947059 1.0047246 1.0128797 0.96295685 0.97601193 0.984156 1.020392 0.96760154
1.010613 1.0546302
00000000: 0ca5 7e3f d19a 803f 0ba6 813f 5784 763f
00000010: ebdb 793f a6f1 7b3f 349c 823f bcb4 773f
00000020: c45b 813f 1ffe 863f

bias f4 [10]
-0.03078513 -0.0196673 -0.0057625133 -0.009684641 -0.008323763 0.015505398 0.021163106 -0.0004281053
0.014522888 -0.018766446
00000000: 1931 fcbc 511d a1bc 77d3 bcbb 54ac 1ebc
00000010: 6460 08bc 5a0a 7e3c 405e ad3c 5273 e0b9
00000020: 68f1 6d3c 17bc 99bc

running_mean f4 [10]
0.74110126 0.8104918 1.2828447 0.5786958 0.8017268 1.3587484 1.5331607 0.545459
1.3461573 0.96470696
00000000: d0b8 3d3f 647c 4f3f 4134 a43f 6825 143f
00000010: f83d 4d3f 78eb ad3f 9c3e c43f 33a3 0b3f
00000020: e24e ac3f 09f7 763f

running_var f4 [10]
1.2322321 2.3979304 3.0746827 0.9811327 1.9217881 3.0116022 5.4723506 0.82351446
4.1451397 1.7417916
00000000: c8b9 9d3f b177 1940 9ac7 4440 832b 7b3f
00000010: 27fd f53f 17be 4040 7f1d af40 d8d1 523f
00000020: fca4 8440 07f3 de3f

weight f4 [10, 10, 1, 1]
0.19448203 -0.23074006 -0.19817258 -0.100115985 -0.21761768 -0.21297775 0.1468146 -0.19563247
0.3974686 0.37805536 -0.17988501 -0.28709835 0.2988594 0.17265514 0.30015078 0.17272364
0.165199 0.11075393 0.20448257 -0.0396925 -0.16890018 -0.32570517 -0.25082326 -0.06712312
0.18574412 -0.060877677 0.28971377 0.25067574 0.12847593 -0.19165143 -0.2858804 0.14117084
-0.17400847 -0.05910278 0.031908248 0.1784234 -0.32719544 0.17029355 0.22655877 0.01602735
0.29091 -0.19373004 -0.28282088 0.20755789 0.010043968 0.16166697 0.2145193 -0.03863061
0.1491124 0.07721447 0.027196143 0.29738694 -0.29871523 0.34460533 0.022813085 -0.1416837
0.1376679 -0.282819 0.14975291 -0.077028714 -0.3293698 -0.09512605 -0.21548174 -0.033649802
0.059223063 -0.05134295 -0.2161455 -0.25079986 -0.15445474 -0.28730926 -0.24467354 0.09401507
0.17119348 -0.108797885 -0.12581237 -0.19253983 -0.01613745 0.14925765 0.06112145 -0.020688893
0.2324829 0.26323402 -0.15442578 0.10550466 0.17434758 -0.14067234 -0.34305975 0.13516663
-0.17508724 0.06867667 -0.06653527 0.1382732 0.110791646 -0.19807126 0.21250406 -0.31158483
-0.23176058 0.07201368 0.21426822 0.24495323
00000000: 4c26 473e 1f47 6cbe c1ed 4abe 9c09 cdbd
00000010: 2bd7 5ebe d716 5abe 9156 163e e153 48be
00000020: 0181 cb3e 7990 c13e c733 38be 8efe 92be
00000030: 1904 993e 82cc 303e 5dad 993e 77de 303e
00000040: ed29 293e f5d2 e23d e163 513e 9a94 22bd
00000050: 2bf4 2cbe d4c2 a6be e86b 80be d977 89bd
00000060: b533 3e3e df5a 79bd 5d55 943e 9258 803e
00000070: 328f 033e 4640 44be ea5e 92be 178f 103e
00000080: 472f 32be c215 72bd 39b2 023d a0b4 363e
00000090: 2986 a7be 6f61 2e3e 06ff 673e ca4b 833c
000000a0: 28f2 943e 2b61 46be e6cd 90be 0e8a 543e
000000b0: 758f 243c 078c 253e f3aa 5b3e 213b 1ebd
000000c0: ecb0 183e 9f22 9e3d 72ca de3c 1a43 983e
000000d0: 34f1 98be 1c70 b03e 82e2 ba3c 8815 11be
000000e0: d0f8 0c3e a7cd 90be d458 193e 3bc1 9dbd
000000f0: 29a3 a8be 72d1 c2bd 3fa7 5cbe 60d4 09bd
00000100: e293 723d fc4c 52bd 3f55 5dbe d768 80be
00000110: 6229 1ebe 331a 93be b38b 7abe f98a c03d
00000120: 584d 2f3e 6dd1 debd f5d4 00be 2929 45be
00000130: af32 84bc ffd6 183e 7c5a 7a3d c17b a9bc
00000140: ff0f 6e3e 9cc6 863e cb21 1ebe d412 d83d
00000150: 2c88 323e 690c 10be 87a5 afbe 1f69 0a3e
00000160: 124a 33be 5ba6 8c3d a543 88bd 7d97 0d3e
00000170: bbe6 e23d 31d3 4abe aa9a 593e 0c88 9fbe
00000180: a552 6dbe e97b 933d 2169 5b3e 05d5 7a3e

bias f4 [10]
0.091674685 0.08880671 -0.22641882 0.035709795 -0.28739262 0.05488217 0.29028547 -0.067534834
-0.21255212 -0.11537144
00000000: f0bf bb3d 4be0 b53d 56da 67be 6f44 123d
00000010: 2025 93be 20cc 603d 4ca0 943e b44f 8abd
00000020: 43a7 59be dd47 ecbd

weight f4 [10]
1.017515 1.0101763 1.0198224 0.9643654 0.974099 1.0680288 1.0531368 0.9732029
0.9551965 0.96297485
00000000: ee3d 823f 754d 813f 8a89 823f a7e0 763f
00000010: 8d5e 793f 2bb5 883f 30cd 863f d323 793f
00000020: c287 743f 8585 763f
